…
    "**Freezing simply means that the parameters in the pre-trained model will *not* change during training.**"
   ]
  },
  {
   "cell_type": "code",
   "execution_count": 7,
   "metadata": {
    "scrolled": true
   },
   "outputs": [
    {
     "name": "stderr",
     "output_type": "stream",
     "text": [
      "Downloading: \"https://download.pytorch.org/models/vgg16-397923af.pth\" to /root/.torch/models/vgg16-397923af.pth\n",
      "100%|| 553433881/553433881 [00:06<00:00, 79118376.16it/s]\n"
     ]
    },
    {
     "name": "stdout",
     "output_type": "stream",
     "text": [
      "VGG(\n",
      "  (features): Sequential(\n",
      "    (0): Conv2d(3, 64, kernel_size=(3, 3), stride=(1, 1), padding=(1, 1))\n",
      "    (1): ReLU(inplace)\n",
      "    (2): Conv2d(64, 64, kernel_size=(3, 3), stride=(1, 1), padding=(1, 1))\n",
      "    (3): ReLU(inplace)\n",
      "    (4): MaxPool2d(kernel_size=2, stride=2, padding=0, dilation=1, ceil_mode=False)\n",
      "    (5): Conv2d(64, 128, kernel_size=(3, 3), stride=(1, 1), padding=(1, 1))\n",
      "    (6): ReLU(inplace)\n",
      "    (7): Conv2d(128, 128, kernel_size=(3, 3), stride=(1, 1), padding=(1, 1))\n",
      "    (8): ReLU(inplace)\n",
      "    (9): MaxPool2d(kernel_size=2, stride=2, padding=0, dilation=1, ceil_mode=False)\n",
      "    (10): Conv2d(128, 256, kernel_size=(3, 3), stride=(1, 1), padding=(1, 1))\n",
      "    (11): ReLU(inplace)\n",
      "    (12): Conv2d(256, 256, kernel_size=(3, 3), stride=(1, 1), padding=(1, 1))\n",
      "    (13): ReLU(inplace)\n",
      "    (14): Conv2d(256, 256, kernel_size=(3, 3), stride=(1, 1), padding=(1, 1))\n",
      "    (15): ReLU(inplace)\n",
      "    (16): MaxPool2d(kernel_size=2, stride=2, padding=0, dilation=1, ceil_mode=False)\n",
      "    (17): Conv2d(256, 512, kernel_size=(3, 3), stride=(1, 1), padding=(1, 1))\n",
      "    (18): ReLU(inplace)\n",
      "    (19): Conv2d(512, 512, kernel_size=(3, 3), stride=(1, 1), padding=(1, 1))\n",
      "    (20): ReLU(inplace)\n",
      "    (21): Conv2d(512, 512, kernel_size=(3, 3), stride=(1, 1), padding=(1, 1))\n",
      "    (22): ReLU(inplace)\n",
      "    (23): MaxPool2d(kernel_size=2, stride=2, padding=0, dilation=1, ceil_mode=False)\n",
      "    (24): Conv2d(512, 512, kernel_size=(3, 3), stride=(1, 1), padding=(1, 1))\n",
      "    (25): ReLU(inplace)\n",
      "    (26): Conv2d(512, 512, kernel_size=(3, 3), stride=(1, 1), padding=(1, 1))\n",
      "    (27): ReLU(inplace)\n",
      "    (28): Conv2d(512, 512, kernel_size=(3, 3), stride=(1, 1), padding=(1, 1))\n",
      "    (29): ReLU(inplace)\n",
      "    (30): MaxPool2d(kernel_size=2, stride=2, padding=0, dilation=1, ceil_mode=False)\n",
      "  )\n",
      "  (classifier): Sequential(\n",
      "    (0): Linear(in_features=25088, out_features=4096, bias=True)\n",
      "    (1): ReLU(inplace)\n",
      "    (2): Dropout(p=0.5)\n",
      "    (3): Linear(in_features=4096, out_features=4096, bias=True)\n",
      "    (4): ReLU(inplace)\n",
      "    (5): Dropout(p=0.5)\n",
      "    (6): Linear(in_features=4096, out_features=1000, bias=True)\n",
      "  )\n",
      ")\n"
     ]
    }
   ],
   "source": [
    "# Load the pretrained model from pytorch\n",
    "vgg16 = models.vgg16(pretrained=True)\n",
    "\n",
    "# print out the model structure\n",
    "print(vgg16)"
   ]
  },
  {
   "cell_type": "code",
   "execution_count": 8,
   "metadata": {},
   "outputs": [
    {
     "name": "stdout",
…
